…
   "cell_type": "code",
   "execution_count": 34,
   "metadata": {
    "colab": {
     "base_uri": "https://localhost:8080/"
    },
    "id": "yW40Am1bmt_L",
    "outputId": "3508a972-4250-40cf-a79f-957d7adbf312"
   },
   "outputs": [
    {
     "name": "stdout",
     "output_type": "stream",
     "text": [
      "Model: \"sequential_1\"\n",
      "_________________________________________________________________\n",
      " Layer (type)                Output Shape              Param #   \n",
      "=================================================================\n",
      " conv2d_4 (Conv2D)           (None, 298, 298, 32)      896       \n",
      "                                                                 \n",
      " max_pooling2d_4 (MaxPooling  (None, 149, 149, 32)     0         \n",
      " 2D)                                                             \n",
      "                                                                 \n",
      " conv2d_5 (Conv2D)           (None, 145, 145, 64)      51264     \n",
      "                                                                 \n",
      " max_pooling2d_5 (MaxPooling  (None, 72, 72, 64)       0         \n",
      " 2D)                                                             \n",
      "                                                                 \n",
      " conv2d_6 (Conv2D)           (None, 68, 68, 128)       204928    \n",
      "                                                                 \n",
      " max_pooling2d_6 (MaxPooling  (None, 34, 34, 128)      0         \n",
      " 2D)                                                             \n",
      "                                                                 \n",
      " conv2d_7 (Conv2D)           (None, 32, 32, 128)       147584    \n",
      "                                                                 \n",
      " max_pooling2d_7 (MaxPooling  (None, 16, 16, 128)      0         \n",
      " 2D)                                                             \n",
      "                                                                 \n",
      " flatten_1 (Flatten)         (None, 32768)             0         \n",
      "                                                                 \n",
      " dropout_1 (Dropout)         (None, 32768)             0         \n",
      "                                                                 \n",
      " dense_3 (Dense)             (None, 512)               16777728  \n",
      "                                                                 \n",
      " dense_4 (Dense)             (None, 256)               131328    \n",
      "                                                                 \n",
      " dense_5 (Dense)             (None, 5)                 1285      \n",
      "                                                                 \n",
      "=================================================================\n",
      "Total params: 17,315,013\n",
      "Trainable params: 17,315,013\n",
      "Non-trainable params: 0\n",
      "_________________________________________________________________\n"
     ]
    }
   ],
   "source": [
    "# creating the network architecture\n",
…
